…
(base) C:\Windows\System32> cd ..\..\skeleton

(base) C:\skeleton> cd bin\dataset

(base) C:\skeleton\bin\dataset>C:\skeleton\bin\dataset>python.exe make_list_cur.py
'C:\skeleton\bin\dataset'은(는) 내부 또는 외부 명령, 실행할 수 있는 프로그램, 또는
배치 파일이 아닙니다.

(base) C:\skeleton\bin\dataset>cd ..

(base) C:\skeleton\bin>script-wins-aix2024-test-all.cmd

(base) C:\skeleton\bin>yolo_cpu.exe detector map yolohw.names aix2024.cfg aix2024.weights -thresh 0.24
valid: Using default 'C:\skeleton\bin\dataset\target.txt'
names: Using default 'C:\skeleton\bin\yolohw.names'
layer     filters    size              input                output
    0 conv     16  3 x 3 / 1   256 x 256 x   3   ->   256 x 256 x  16 0.057 BF
    1 max          2 x 2 / 2   256 x 256 x  16   ->   128 x 128 x  16
    2 conv     32  3 x 3 / 1   128 x 128 x  16   ->   128 x 128 x  32 0.151 BF
    3 max          2 x 2 / 2   128 x 128 x  32   ->    64 x  64 x  32
    4 conv     64  3 x 3 / 1    64 x  64 x  32   ->    64 x  64 x  64 0.151 BF
    5 max          2 x 2 / 2    64 x  64 x  64   ->    32 x  32 x  64
    6 conv    128  3 x 3 / 1    32 x  32 x  64   ->    32 x  32 x 128 0.151 BF
    7 max          2 x 2 / 2    32 x  32 x 128   ->    16 x  16 x 128
    8 conv    256  3 x 3 / 1    16 x  16 x 128   ->    16 x  16 x 256 0.151 BF
    9 max          2 x 2 / 2    16 x  16 x 256   ->     8 x   8 x 256
   10 conv    512  3 x 3 / 1     8 x   8 x 256   ->     8 x   8 x 512 0.151 BF
   11 max          2 x 2 / 1     8 x   8 x 512   ->     8 x   8 x 512
   12 conv    256  1 x 1 / 1     8 x   8 x 512   ->     8 x   8 x 256 0.017 BF
   13 conv    512  3 x 3 / 1     8 x   8 x 256   ->     8 x   8 x 512 0.151 BF
   14 conv    195  1 x 1 / 1     8 x   8 x 512   ->     8 x   8 x 195 0.013 BF
   15 yolo
   16 route  12
   17 conv    128  1 x 1 / 1     8 x   8 x 256   ->     8 x   8 x 128 0.004 BF
   18 upsample            2x     8 x   8 x 128   ->    16 x  16 x 128
   19 route  18 8
   20 conv    195  1 x 1 / 1    16 x  16 x 384   ->    16 x  16 x 195 0.038 BF
   21 yolo
Total BFLOPS 1.035
Loading weights from aix2024.weights...
Done!

4
8
12
16
20
24
28
32
36
40
44
48
52
56
60
64
68
72
76
80
84
88
92
96
100
104
108
112
116
120
124
128
132
136
140
144
148
152
156
160
164
168
172
176
180
184
188
192
196
200
204
208
212
216
220
224
228
232
detections_count = 12008, unique_truth_count = 2959
class_id = 0, name = aunt_jemima_original_syrup,         ap = 82.37 %
…
